p1_navigation/checkpoint.pth (torch_old, 28417 bytes, 6 tensors)

fc1.weight f4 [64, 37]
00000000: 56f8 9d3b 76f1 7cbc ab74 0fbe 1e17 75be
00000010: 3203 043e 4bf9 4c3e c908 f7bd 97b2 863b
00000020: 0d5f a2be ffed 82bf c7c8 58bd 52df 05bd
00000030: f47d 23be 5ed6 19be fa2f 69bd 0a4c babc
00000040: 20eb abbd 6615 113e ac93 933b 019f 373e
00000050: 03bd 943d 9a58 55bd a0bd 8a3d 38fc 6f3e
00000060: 9b2a c0bd 2e30 04be 2184 ed3d 5015 e5bc
00000070: d1e5 b5bd 8be5 253d 0987 aabe fbef 1c3e
00000080: b071 9a3d eba7 ea3d e6e3 a1be a568 5a3c
00000090: 30a6 cdbb 191b cd3e f2dc 2abe 214a c0bd
000000a0: 5473 70be 530c 86bf a2a5 ca3c fa50 1bbe
000000b0: ce1a 1abe 2d11 76bd 4019 de3b b263 b33c
000000c0: 3df3 9b3d 47b4 0b3d 7f1b 893d e428 943d
000000d0: c747 bf3d 984e 1e3d 680a a73c 3842 e7bc
000000e0: e491 8e3c db1b b2be 2e3b 933c 9349 013d
000000f0: d167 9ebd fe60 2ebd e413 033d d706 ed3c
00000100: 899b 52bc d826 a93c d640 c0bb c288 453d
00000110: 5124 383e d8a2 ad3d 3325 71bd d2ae 9a3b
00000120: f698 043c ad33 19bc ebd7 c4bd 487c 173c
00000130: bcb7 803e dc75 513e e710 0e3e 7dfe d3be
00000140: 79d9 503d af33 903e 858c 883c 671a 81be
00000150: 1d44 3cbd 5be3 aebc 54b0 b33d 7f26 c03c
00000160: ecd7 9cbd 9f2d 31be 7a65 153e 61be c63d
00000170: 0a76 123e 6d4e 093e 8e79 58bd 4fd1 b6bd
00000180: e800 073c f720 8a3d 6f7a 493c 50e6 ddbe
00000190: 41f6 9c3d 8b70 833e f817 233d 5a48 2cbe
000001a0: da16 78be e806 a03d dd14 c1bd fa4c e4bc
000001b0: 6e5d 81bd 0004 883a 732e b9bc 9d81 153e
000001c0: 9efd b4be 07df 133e e991 c83d efe0 bdbe
000001d0: 219c 71bd 2012 6a3e 87b4 a0bc ef87 8abe
000001e0: bc8e ecbe e020 ba3d 96e4 5fbd e8b4 00bd
000001f0: fb52 86bc 5ee1 c6bd 81cb 9dbe 864d e03d
00000200: 99f6 c73d f318 d6be c180 9cbe b927 043e
00000210: 844c 34be 0b2f 1b3c 64d2 adbc 70f3 3b3e
00000220: 3d98 b2bc c2da 09bd 085b 403d cd2f c93d
00000230: 9702 05bf 6201 6d3e b6d1 833c e447 033d
00000240: c221 31be 5f9a 05bf c8bb 0b3e c8ab 043c
00000250: 41a7 68bd 9bf0 00be cd93 10be ca0e 3dbe
00000260: 5728 97bc 9b58 8c3d ea87 44bd 2027 a4bd
00000270: ccad ed3c 4912 f3be 141a 3d3e cd6d e0bd
00000280: df0b 7bbe ab81 5dbe 9be3 acbe 56aa 1b3d
00000290: c5a0 0cbe 57f5 a8bd 10c2 29be 91ed 8d3d
000002a0: c777 aebc 7821 e63d 88fb 793d f3a5 f2be
000002b0: 1019 dabd 5a37 513e 6d1f 14be 9440 a53a
000002c0: 00ed f4be be51 16bf 8120 ab3e ac7f 82be
000002d0: 2340 5cbd 0c66 35be dd4b 5cbe 9546 033d
000002e0: 7fb6 c5bb aff8 adbd 5da1 1bbe 0054 dd3c
000002f0: c571 f13d dc50 84bd 8373 093e bbdc e43e
00000300: 2a06 7cbe 4559 acbe 3533 abbe 8bbc bfbe
00000310: f71a 2cbc ebbc 493d f31a 1b3d 893c 3dbd
00000320: 5125 0abe ddf2 b03d be42 8a3c 08cc 78bd
00000330: 8d8a 27be a1fe 2abc 0eed 90bc 7979 583e
00000340: 13a6 4b3e 7426 b53d 869d fdbd cf4f 36bd
00000350: 7c90 8a3d e992 e93d 0b75 0d3e 6de7 c73d
00000360: cb43 2dbf 0cea 3cbe b270 cd3d 8857 fdbe
00000370: aa7e 903b 111a 0c3d 79b4 6cbe 8aeb 2abe
00000380: c6c5 483e 731e 75be e8f8 043d 8614 4f3e
00000390: b734 83be 7bcd adbe 98ff 22bd ce37 d7bd
000003a0: d80f d23d 5717 ed3d 3f8c a83b 8774 ebbd
000003b0: d357 3e3e d1d2 cdbc d308 7cbe e016 8d3d
000003c0: 6462 fabd 82ce e23d 8090 3abd 3318 adbd
000003d0: 31ef 42bd 65c8 a83c 1321 093e 3bda 49bd
000003e0: b54c b5bd dc45 27be dc1a a4bd e112 bfbe
000003f0: 0ad1 a53d d15e b7bd 2cde 8ebe c5a2 db3d
0.0048208637 -0.015438428 -0.14009349 -0.239346 0.12891844 0.20016973 -0.120622225 0.004110645
-0.31713143 -1.0228881 -0.05292585 -0.032683678 -0.15966016 -0.15023181 -0.05693052 -0.022741336
-0.08394456 0.14168319 0.004503688 0.17931749 0.072626136 -0.05208645 0.06774449 0.23436058
-0.09383126 -0.12909004 0.11597467 -0.027964264 -0.088817246 0.040502112 -0.3330615 0.1532592
0.075412154 0.11457809 -0.31619185 0.013330613 -0.0062759146 0.40059736 -0.16685846 -0.09389139
-0.23481494 -1.0472511 0.024737183 -0.15167609 -0.15049288 -0.060074974 0.0067779124 0.021898124
0.076147534 0.034107473 0.066946976 0.07234362 0.09339862 0.03864917 0.020390704 -0.028229818
0.01740355 -0.34786877 0.017972555 0.031564306 -0.07734645 -0.042572968 0.03200139 0.028933926
-0.012854465 0.020648405 -0.005867104 0.048226126 0.17982604 0.084783256 -0.058873367 0.0047205472
0.008093109 -0.009350699 -0.096114956 0.00924594 0.25140178 0.20455116 0.13873635 -0.41405097
0.050988648 0.2816443 0.016668567 -0.25215456 -0.045963395 -0.021348646 0.08773866 0.023455856
-0.07658371 -0.1730256 0.14589491 0.09704281 0.14302841 0.13408823 -0.0528503 -0.08926641
0.008239962 0.06744569 0.012297257 -0.43339777 0.07664157 0.256718 0.03981778 -0.16824475
-0.24227467 0.07813817 -0.094278075 -0.027868737 -0.063166484 0.0010377169 -0.022605157 0.14600225
-0.35349745 0.14440547 0.09793455 -0.37085673 -0.058986787 0.22858477 -0.019617332 -0.27056834
-0.46202648 0.09088302 -0.054661356 -0.031422526 -0.01639699 -0.09710954 -0.30819324 0.109522864
0.09763832 -0.4181591 -0.3056698 0.12905778 -0.17607313 0.009471665 -0.021218486 0.18354583
-0.021801108 -0.03365589 0.046961814 0.098235704 -0.51957077 0.23145059 0.016091209 0.032050982
-0.17298034 -0.52188677 0.13645852 0.0080975965 -0.05680013 -0.12591784 -0.14118882 -0.18462673
-0.018451853 0.06852838 -0.04798118 -0.08015275 0.029013537 -0.47474888 0.1846698 -0.10958443
-0.24516247 -0.21631496 -0.337674 0.038004242 -0.13733204 -0.0824992 -0.16577935 0.06930078
-0.021297349 0.112368524 0.061030895 -0.47392234 -0.106493115 0.20431271 -0.14465113 0.0012607747
-0.47837067 -0.5871848 0.33423236 -0.2548803 -0.053772103 -0.17714709 -0.21513315 0.032049734
-0.006033718 -0.08494698 -0.15198274 0.027017593 0.11789278 -0.06460735 0.1342297 0.44699654
-0.24611726 -0.33661857 -0.33437505 -0.37448534 -0.010504476 0.04925243 0.037867498 -0.04620031
-0.13490798 0.086400725 0.016877528 -0.060741454 -0.16361447 -0.010436685 -0.017691161 0.21140088
0.19887571 0.08845225 -0.12383561 -0.044509705 0.067658395 0.11404974 0.1381418 0.09760938
-0.6768157 -0.18448657 0.100312606 -0.49480844 0.004409631 0.034204546 -0.2311572 -0.16691414
0.19606695 -0.23937397 0.032463938 0.20222673 -0.25626156 -0.33945832 -0.039794534 -0.10508691
0.10256928 0.11576717 0.0051436718 -0.11496835 0.1858819 -0.02512494 -0.24612741 0.06889129
-0.12225798 0.110745445 -0.045547962 -0.08451881 -0.047591392 0.020603368 0.13391523 -0.049280386
-0.08852521 -0.16335243 -0.080129355 -0.3731909 0.08096512 -0.08953632 -0.2790388 0.10724405

fc1.bias f4 [64]
00000000: 47e4 d43d 194a c0bc 4e8a 21be 4e65 7cbd
00000010: 2079 4b3e 4ddb 9dbd 05b5 bcbd 32e3 803c
00000020: d80e 39bc b21a 08be 0b31 063e 1aca 3a3e
00000030: b401 3e3e 48c1 a73d 61fc 51bd 1098 10be
00000040: 8f88 353c aba9 d93c 780f 843d 1649 47be
00000050: 0227 d2bd 3112 823d c61a 6f3d 2993 23be
00000060: a825 f8bd e5d3 023d 8196 a3bc 21af 38be
00000070: 6842 053e 975d e63d 15e8 2abd 1ff3 4ebe
00000080: 71dd 063e 1dda dc3c 0c15 08be ca80 b93c
00000090: bfc4 95bc dfbf 073d cce3 b2bc 1b9f e2bc
000000a0: aa0c c9bc 8997 a03c fa3b 4abe f4f7 e83d
000000b0: 3746 c43d e615 a4bd dd0d d03d c2ac 4cbe
000000c0: 4b34 1fbe 9b32 f23d 567c 1bbc 3c33 db3d
000000d0: fd99 b4bc 4b1d a6bd c9b7 64be e489 353d
000000e0: 1887 dc3d 16d0 cebd 9108 85bd 05ee bdbd
000000f0: ad8b 3cbc c589 973d 1edc 353d 7289 da3d
0.10395103 -0.023472833 -0.15775415 -0.06162005 0.19870424 -0.07707844 -0.09214214 0.015733335
-0.011295043 -0.13291433 0.13104646 0.18241158 0.18555337 0.08191162 -0.051266078 -0.14120507
0.011079921 0.026570162 0.06448263 -0.19461474 -0.102613464 0.06351126 0.058375143 -0.15974106
-0.12116557 0.03194036 -0.019969227 -0.18035556 0.13013613 0.112483196 -0.041725237 -0.20209931
0.1317041 0.026959473 -0.13289279 0.02264442 -0.018282292 0.033141967 -0.021837138 -0.027663758
-0.024542172 0.019603508 -0.19749442 0.11375418 0.09583705 -0.08011989 0.10158894 -0.19987777
-0.15547292 0.118260585 -0.009490093 0.107031316 -0.022046084 -0.08111056 -0.22335733 0.044320956
0.107679546 -0.10098283 -0.064957745 -0.09273914 -0.011507911 0.07399324 0.044399373 0.10670747

fc2.weight f4 [64, 64]
00000000: cb19 eb3d 3d78 913d 0034 4f3e 37c9 8d3e
00000010: 8f38 013e fbd8 b4be c53e 463d 60d9 8a3c
00000020: b7ec d3bd 6b0e 19bd ad4b 543e 16e4 2bbe
00000030: 563e 23be e530 6abd ed0f b1be d78f 43bb
00000040: c4ee 51be 67d6 a5bc d3ea be3d e7d8 1e3e
00000050: ebca e93d a25a 733d 10c2 9a3b 49ae e9bc
00000060: a6bb 523d 94db 8c3d 4796 523e e6c7 f0bc
00000070: 195e 57be 390a a33d b18f 883c 11f9 b4bd
00000080: 30cb 023e 3933 413e 1b07 1b3c 16b8 e33d
00000090: 061d 133d 1977 023e a792 5ebe 8a83 83be
000000a0: d4b1 50be 26b2 01bf 6716 cc3d df14 23be
000000b0: be68 fe3d b8d1 93bd 880e 1bbe 12c8 99bd
000000c0: 971d c53d e7ea 0cbe f3a9 bbbd 5b8d 24be
000000d0: a55a 1ebe 526f 1fbe 84dd 233e 81bb e2be
000000e0: b8a5 79bd 08bb 25be 80eb abbe b0a9 023e
000000f0: 4e01 e93d 25aa 7e3e c065 e9be dc1c 3a3e
00000100: e2ca 0e3e 7427 fc3d e9fe cebb 70c4 c43d
00000110: aeda ef3d 35f3 853d 0a6d 383d fea0 b73d
00000120: 07ee 22be ac63 8bbe 2d1a 2ebe 50f8 c73e
00000130: 18e3 84bd f171 66bd 8c62 2abd ee79 1b3e
00000140: 87bb ec3d 87b9 37bd e27b a0bd c689 dc3d
00000150: 9a33 64bd ec61 4bbe 5914 c23e d92c 71bc
00000160: bad7 0ebe 0486 243e 831b 9abe 9149 11be
00000170: 4b7b aebd ac0e 47be bd8a 323c f065 f73b
00000180: f306 1abd 3d70 07be 0c13 06be b069 1fbd
00000190: 5ed6 98bd febb ebbd 6c26 d6be 36ed 33be
000001a0: 4b81 e4bd a00b b93d 49d5 0b3e 5fce 50be
000001b0: f00e c3bd 1da0 65be 3595 25be 68a1 1cbe
000001c0: d297 19be bdcc 36be d3bf d8bd 5f41 803b
000001d0: c2c9 403c 7807 a1bd cea7 073d d45a 82bd
000001e0: e176 87be 1acb 35be d55c 9c3e adb3 ab3d
000001f0: 5b2a 32be 6de7 ba3c 3b47 813d 614d 35be
00000200: dfe9 afbc 31a6 43be 7c4b 16be 1e35 31be
00000210: e341 bc3d 77d2 403e 4c9b 35bb b5d9 dfbd
00000220: 7548 91bc ac4e 1ebb 5815 c63e 3b84 3bbe
00000230: f31f a43d 0048 b93d 73ee 623d 8b6d 23be
00000240: c5a2 d8bd ea2e 603e 9313 a1be 36c3 08bf
00000250: 21a5 aabb 566a e43d 6a41 c7be 68b0 5a3e
00000260: 0a19 9cbe 5ca3 35bc 8319 153d fa9a 94bd
00000270: 529c 3e3d 7613 193e 54b0 8b3e a1fa 87be
00000280: 0cf0 48bd b4ed 763e 99e7 2ebd c5c8 523e
00000290: 1ecd 2c3e 9a70 aebe 3ed2 b03d 9f06 3abe
000002a0: 8e41 603e 81db 5fbe 82c0 1bbe ad79 4ebe
000002b0: 90a6 d3bd c28f 85bd 2e60 69bc aa27 293d
000002c0: 9571 9abe 0234 d1be e23e 27bb a90a 743d
000002d0: ba34 00bd 24cf 99be 11c2 11be 2952 0abe
000002e0: 4d82 02be 7785 22bc a71f 0e3c c7d6 943d
000002f0: d587 503e 07bb 10be 524f 20bb 3ebd a03b
00000300: aae1 6ebe 3250 3cbe 2b60 313e a183 00bc
00000310: 5f07 3fbe b0c5 85bd 3ba8 fabd f70f 6abe
00000320: ddb1 e7bd eb9e 153d 6102 70be 754b a23d
00000330: 610d 07bd 7e98 443e 2f63 fabd 957c 2ebd
00000340: 04bb abbc 3de5 80bc 91c8 60bb 919a 32be
00000350: b3bf 60bd 5388 2bbe 6f2d 07be b64d f53d
00000360: 285d b2bd 7e8a 2a3e b0e9 493e 8fd0 20bd
00000370: ad65 2d3e 4ce1 cbbe ba24 73bd 45a4 533e
00000380: c31e 4dbe 801c 6fbe 74aa 783c 4c04 013e
00000390: 2dd6 39be 024d 8c3a 4d5c 203f 2c31 8d3d
000003a0: 22eb ee3c 2c5a 1cbc 3f5f 7cbe e369 343c
000003b0: d8fa 033e 40fc 02be 0327 d9bd e548 78bd
000003c0: 90b7 ad3d 1f47 d93d 0fa4 6cbe 80dc a9be
000003d0: ed8b f33d f714 323e 5e51 513e 5bf7 0a3e
000003e0: 5b09 e2bd 874e f5bd b8cb acbd 2af9 373e
000003f0: 2ac2 97be 3c14 273e 3235 36be 564b 69be
0.11479529 0.07103012 0.2023468 0.27692577 0.12619232 -0.35321793 0.048399705 0.016949356
-0.10347884 -0.037367266 0.20731993 -0.16786227 -0.15941748 -0.057175536 -0.34582463 -0.0029840374
-0.20501238 -0.020243837 0.09322133 0.15512429 0.11415657 0.059412606 0.004722841 -0.028525488
0.051448487 0.06877819 0.20565139 -0.029392194 -0.21031989 0.07960934 0.01667008 -0.08836568
0.12772822 0.18867196 0.009462143 0.11119096 0.03591635 0.12740745 -0.21735631 -0.25686294
-0.20380336 -0.5066246 0.099652104 -0.1592593 0.12422322 -0.07217735 -0.15142262 -0.075088635
0.096247844 -0.13761483 -0.091632746 -0.16069548 -0.15464266 -0.15569809 0.1600247 -0.4428368
-0.060949057 -0.16184628 -0.3357811 0.12760043 0.11377202 0.24869592 -0.45585442 0.18175071
0.13944581 0.123122126 -0.0063170088 0.0960778 0.11711632 0.06540529 0.045025863 0.08966254
-0.15911113 -0.2722448 -0.17002173 0.39056635 -0.06488627 -0.056261007 -0.041597888 0.15183231
0.115592055 -0.044854667 -0.07836129 0.10768466 -0.055713274 -0.19861573 0.3790615 -0.014720165
-0.1394948 0.16066748 -0.30099115 -0.1418822 -0.0851961 -0.1943919 0.010897336 0.0075499937
-0.037604284 -0.1322641 -0.13093203 -0.03891915 -0.07462762 -0.11510466 -0.4182619 -0.17570958
-0.11157473 0.090354204 0.1365558 -0.20391224 -0.095243335 -0.2242436 -0.16170199 -0.15295947
-0.14999321 -0.17851539 -0.105834626 0.003914043 0.011766853 -0.07862753 0.033119015 -0.0636498
-0.26457885 -0.17753258 0.30539575 0.0838388 -0.1739897 0.02281543 0.06312414 -0.17705299
-0.021473823 -0.19106366 -0.14677233 -0.17305419 0.091922544 0.18830286 -0.0027710972 -0.10930196
-0.017734746 -0.0024155779 0.3868816 -0.1831216 0.08013906 0.09046936 0.055403184 -0.15959756
-0.10577921 0.21892896 -0.31460246 -0.5342287 -0.005207673 0.111530945 -0.38917094 0.21356356
-0.30487853 -0.011086311 0.036401283 -0.07256122 0.046535797 0.1494883 0.27282965 -0.26558402
-0.04905705 0.24114114 -0.042701337 0.205844 0.16875121 -0.34070283 0.086338505 -0.18166588
0.21900007 -0.21861078 -0.15210155 -0.20163603 -0.10334504 -0.0652156 -0.014244122 0.041297592
-0.3016478 -0.4085999 -0.0025519659 0.05958048 -0.031300284 -0.30040848 -0.14234187 -0.13507904
-0.12745018 -0.009919516 0.008674539 0.07267528 0.20364316 -0.14133845 -0.002446134 0.004905372
-0.23328272 -0.18389967 0.17321841 -0.007843883 -0.18655156 -0.065318465 -0.12239119 -0.22857653
-0.113132216 0.03652851 -0.23438407 0.079245485 -0.032971743 0.19198796 -0.12225949 -0.04259928
-0.0209632 -0.01573431 -0.0034299234 -0.17441775 -0.05487032 -0.16751222 -0.13200925 0.11977713
-0.087091744 0.16654393 0.19718051 -0.039261397 0.16933317 -0.39820325 -0.059361197 0.20668133
-0.20031266 -0.23350716 0.015177358 0.12599295 -0.18148108 0.0010704102 0.6264084 0.068941444
0.029164854 -0.009542983 -0.24645709 0.0110115735 0.12888658 -0.12791538 -0.10603144 -0.060616393
0.084822774 0.106092684 -0.23109458 -0.3317604 0.11891923 0.1739081 0.20441195 0.13570921
-0.11036941 -0.119778685 -0.08437294 0.17966142 -0.29640323 0.16316313 -0.1779373 -0.22782645

fc2.bias f4 [64]
00000000: 5818 cbbc 4b89 0ebd 43fb c03d 79c3 bf3c
00000010: 68f3 293e e78f 3ebe e246 fe3c 029c c03c
00000020: 6f12 553e 624a d43e 10d2 b3bc 202d 313e
00000030: d333 953d 5f3f c0bc d0f8 b9bd 2c22 543c
00000040: 3eb0 823e 33a4 c73a 09dd 41be 3b70 8b3e
00000050: dcf5 a53e d1a8 dc3e 23d6 1dbe 325a fdbd
00000060: 0408 cabd 57d7 e2bd 803d e73d 6121 5bbc
00000070: ebaa 2dbd a2b5 583d ccc0 3d3d 1960 3a3e
00000080: b4e0 d53c 13b3 07bd 1af0 bf3d fbcb e4bc
00000090: e40f 30bd 6641 e8bd dc16 7f3d fb90 62bc
000000a0: 5ffb 95bd c2dc fb3e 9e83 a53e f9cb 25bd
000000b0: 8fbe c23d 4be9 39be 00e9 9d3e f255 15be
000000c0: 03e7 12bb 04b7 d5bd 1374 0b3e 1959 b83e
000000d0: d061 9fbd 630b 60be 6c25 183e 902b a9bd
000000e0: d709 0bbe 843c 72bd 9439 09bc b252 9cbd
000000f0: b0b4 763c 709b bb3e a578 9f3d a422 88bd
-0.024791881 -0.0347989 0.09422924 0.023408638 0.16596758 -0.18609582 0.031039659 0.02351189
0.20807813 0.41463 -0.021950752 0.1730237 0.07285275 -0.023467718 -0.0908066 0.0129476
0.25525087 0.001523143 -0.18931974 0.27234063 0.32414138 0.43097547 -0.15413718 -0.12370719
-0.0986481 -0.11076229 0.11291027 -0.013374657 -0.04239933 0.052907594 0.046326444 0.18200721
0.026108123 -0.033129763 0.093719676 -0.027929297 -0.042983904 -0.11340599 0.06227766 -0.013828511
-0.07323336 0.49191862 0.32326978 -0.040477727 0.095090024 -0.181554 0.30841827 -0.14583567
-0.0022415526 -0.10435298 0.13618498 0.36005476 -0.07782328 -0.21879344 0.14858025 -0.08260262
-0.13577972 -0.059139743 -0.008375544 -0.076329604 0.015057728 0.36642027 0.07786683 -0.06647232

fc3.weight f4 [4, 64]
00000000: 109e ea3d adbf 323e e3cc 4c3e d5dc a43d
00000010: 6750 473e 8f76 9bbd c7de 183e b71d e4be
00000020: b416 4b3e 65c3 053e 2750 52bd 5bf3 c03e
00000030: dfb9 813e ca23 aa3d 7eac b9be fecc 8dbe
00000040: 2648 3b3d feb6 a6be bf30 69be 22a6 463e
00000050: 4b0c d23d 1df5 6c3e df55 d1bd 9c3f 38be
00000060: f9ce e43e 9f2d 60bd 806b bbbe 897f ac3c
00000070: 183b ca3e ae40 513e 98b4 bebe d722 1f3e
00000080: d588 0f3f 4a3d f23e 2971 b83d 8b59 ee3e
00000090: cd5f 733e bca6 a2be 768a 2dbc 4130 a63e
000000a0: 6f3f a13e 8543 1e3e 8bba 9b3d c8ee 9fbe
000000b0: ba8a df3d 301c cfbd 7703 443e 81a3 de3c
000000c0: 2d48 d0bd f145 a93e e8ac e63d 05c6 ef3d
000000d0: bc42 303e 0516 6abe d0ea 5c3d 1113 d23a
000000e0: 283a 92be 848d 303e fb9c 04be a8d8 6d3d
000000f0: 8519 00be 15e0 3d3e ca5a c2bd 515b 0b3e
00000100: 2f89 593e 67a3 933e 92d7 8e3e 3887 a23e
00000110: fb91 513e 08e2 c1bd 32ea a13d e3d3 2ebd
00000120: ca1f 1b3e 7dba 0c3e 94fd b53c 945f b93e
00000130: 1f53 ae3e 7d28 8e3c 037a 5b3e 187f 32bd
00000140: 6919 423d 88b5 873e aa50 8bbe 8cd4 b43d
00000150: 8cb2 323e 99bb 703e f607 41be eb2a 30be
00000160: 794d db3e 9a6c b2bd 5517 fabd 28d7 67be
00000170: b96c fb3e 1f44 ce3e 8c88 b73c e8dc 613e
00000180: 94ee af3e f596 af3e 8083 2f3e 61b0 e23e
00000190: 4909 493e b189 a2be e891 bb3c f44a f53e
000001a0: 5943 6f3e 51a1 343e 0999 0b3c ada8 48bc
000001b0: 0baf 5c3e 7853 3dbe b34f 3c3e e5a1 cb3c
000001c0: 1bb9 513a b636 703e 041e 313e 5aa7 333c
000001d0: 8ccd 173e 30ef 74be f3ed 5b3d c658 813d
000001e0: 6d7b 20be c52a 18bd 1228 41be 43ec 453c
000001f0: b65c 8dbd bf11 b03d 05ee ed3d 0f4b 673e
00000200: 5323 c23e 2669 bb3e df29 6a3e ad50 1a3f
00000210: 085c 703e 6adc 683d 94ad 563e 82db 923c
00000220: 411f 293e e58c cb3d 0d09 38be 1f0f fe3e
00000230: d1af 993e 6dfb fdbe be77 4bbe 9ca0 353e
00000240: fbb1 ee3d 11d0 cabe c6bf c7be b97a 743d
00000250: 17e1 193e 53ce ab3e 227d aabe 984b 0e3d
00000260: 0531 463f 6771 98be 01d0 adbe 2871 83be
00000270: 82b1 373e e5df ac3e 50f3 a5be 769e 2e3d
00000280: 65ab 933e 289b b93e ce0e 403e 60d0 b43e
00000290: 3106 e93d ed8b a9be 55c4 8abe c47f 9cbc
000002a0: 85d9 233d 4c0d 203e ffbc 393e 83e0 a23c
000002b0: 3a17 893e 27ec 86be e4c8 373e a2ff 9c3e
000002c0: d441 043e 0f3a fb3e 8b67 cb3c cdb8 633e
000002d0: 06b5 3f3d 3904 063e bdf5 a33d f2f3 65bd
000002e0: bb4f 56be 61c6 b73e 21c4 5d3e 1e4d a739
000002f0: a0cd f3be 78dd 0b3e f2db e5be 176d bbbd
00000300: fa8a 0c3e 9416 063f 99b8 823e 632e 163d
00000310: a962 443d d958 44be ac28 953d 3627 80be
00000320: 8a86 d73d 2865 343e f6fc 073e 86ff 593d
00000330: e901 013f 9fb8 953e 25d8 c03e 6cce 30bd
00000340: 659e 353e fb0e 9a3e dc22 1cbe 3295 033e
00000350: 0496 9e3d f023 913e ab5e 82be bc3f 0b3d
00000360: 4976 aa3e d682 09bf 287d 0fbe b819 913e
00000370: b21b fe3e c08b 05be e5d7 e5be 40f6 d43d
00000380: a38e a43e f12b af3e 078e 393d 2411 b53e
00000390: dbc7 7f3d ef36 29be 26bf a43e 87f4 d53e
000003a0: 89fd f9bd ee93 533e 9c7e ff3d 97e7 cfbe
000003b0: f928 fd3e 6503 92be 163f 103e d2a9 9e3e
000003c0: 4a2e f4bb 63ff 713e ab86 803e a545 0b3e
000003d0: 1618 813e 55f6 05be 8f3d 143e 6f0b 893e
000003e0: 3771 8dbe a138 11be d91b 10bf a724 11be
000003f0: 6e9e 72be 0f79 9e3d 7174 4f3e 8f28 0d3e
0.11455929 0.17455931 0.20000033 0.08049933 0.19464265 -0.07590973 0.14928733 -0.4455392
0.1983288 0.13062818 -0.05134597 0.37685665 0.2533712 0.083076075 -0.36264414 -0.2769546
0.045723103 -0.32561487 -0.22772501 0.19399312 0.10256251 0.23140378 -0.10221457 -0.17993015
0.44689158 -0.054731008 -0.36605453 0.021056907 0.3949821 0.2043483 -0.37247157 0.15540634
0.56068164 0.47312385 0.090059586 0.4655269 0.23767014 -0.31767833 -0.010592094 0.3245869
0.31493708 0.15455444 0.076039396 -0.31236863 0.10915132 -0.10112798 0.19141947 0.027177574
-0.101700164 0.33061174 0.11263448 0.11707691 0.17212957 -0.22859962 0.053934872 0.0016027411
-0.28559995 0.17241484 -0.12950508 0.058067948 -0.12509735 0.18542512 -0.09489973 0.13609053
0.21243738 0.28835604 0.27898842 0.3174379 0.20465843 -0.0946694 0.07905997 -0.04268254
0.15148845 0.13743015 0.022215642 0.36205733 0.3404779 0.01735329 0.21433263 -0.043578237
0.047387514 0.26505685 -0.2720998 0.088296026 0.17450923 0.23509063 -0.18850693 -0.17203872
0.42832544 -0.0871212 -0.122114815 -0.2264067 0.49106386 0.40286347 0.022403978 0.22056925
0.34361708 0.3429486 0.17140007 0.4427519 0.19632448 -0.31745675 0.022896722 0.47908747
0.23365535 0.17639662 0.008520373 -0.012247247 0.21551149 -0.18488872 0.18389778 0.02485747
0.00080003 0.2345837 0.17296606 0.010965193 0.14824504 -0.23919368 0.053693723 0.0631576
-0.15672083 -0.037150163 -0.18862942 0.012080255 -0.06902449 0.08597135 0.11617664 0.22587226
0.37917575 0.3660366 0.22867535 0.6027935 0.23472607 0.05685083 0.20964652 0.017926935
0.16515829 0.09938983 -0.17972203 0.4962091 0.3001695 -0.49605885 -0.19869897 0.17737049
0.11655041 -0.39611867 -0.390135 0.05968735 0.15027271 0.3355585 -0.33298594 0.03474006
0.7741855 -0.2977402 -0.33947757 -0.2567227 0.17938808 0.33764568 -0.32412195 0.04263159
0.288417 0.36251187 0.18755648 0.35315228 0.11378134 -0.33114567 -0.27102914 -0.019103892
0.040002365 0.15630072 0.18138503 0.019882446 0.26775533 -0.26352045 0.17947727 0.30663782
0.12915736 0.49067733 0.024829647 0.22238465 0.046803497 0.13087548 0.08005855 -0.056140848
-0.20928852 0.3589354 0.21656848 0.0003191018 -0.47617817 0.13658702 -0.44894367 -0.091516666
0.1372489 0.523782 0.25531462 0.03666533 0.047945652 -0.19174518 0.07283148 -0.25029916
0.10523708 0.17616713 0.1328009 0.0532222 0.5039354 0.29242417 0.37664905 -0.04316561
0.17736204 0.30089554 -0.15247673 0.12849882 0.07743457 0.2834773 -0.2546285 0.03399633
0.3329337 -0.53715265 -0.14012587 0.28339934 0.49630505 -0.13041592 -0.44891277 0.10398531
0.32140073 0.34213212 0.045301463 0.3536464 0.062446456 -0.16524862 0.32177085 0.41788122
-0.12206561 0.206619 0.12475321 -0.40606377 0.49445322 -0.28518215 0.14086565 0.30988938
-0.007451807 0.23632579 0.25102744 0.13600786 0.2521369 -0.1308225 0.14476608 0.26766536
-0.2762544 -0.14181758 -0.5629249 -0.14174138 -0.23693249 0.07737934 0.20259263 0.13785003

fc3.bias f4 [4]
00000000: f633 a33e 85e4 6e3e a513 303e 7f32 313e
0.3187558 0.23329361 0.17194994 0.17304419
